email_rnn_model.pt (torch, 25952 bytes, 7 tensors)

lstm.weight_ih_l0 f4 [128, 6]
0	0x3cff9127	0.031197144
1	0xbede50dd	-0.4342107
2	0x3ea3dfc2	0.3200665
3	0x3e66a9ae	0.22525665
4	0x3eba39fc	0.36372364
5	0xbc27fb4f	-0.010252788
6	0xbe9652d4	-0.29360068
7	0x3dece7c4	0.11567643
8	0xbe554649	-0.20827593
9	0xbd9ba5c9	-0.075999804
10	0xbe590837	-0.2119454
11	0xbe05eda9	-0.13078941
12	0x3e76694b	0.24063604
13	0x3d984358	0.0743472
14	0x3de34d4b	0.11098727
15	0xbee0415f	-0.43799874
16	0xbe48c3f1	-0.19605996
17	0xbfc9c207	-1.5762337
18	0xbe6c47cd	-0.23074265
19	0xbd3ed5fb	-0.046590786
20	0xbdc58d7b	-0.09646126
21	0x3e06ad24	0.13151985
22	0xbc60f772	-0.013730871
23	0xbf2841b5	-0.6572526
24	0xbe0d6221	-0.13806964
25	0xbeb8c118	-0.3608482
26	0x3e775cce	0.24156496
27	0x3d3774e3	0.044789206
28	0x3f36556b	0.7122409
29	0xbe67c5f1	-0.22634102
30	0x3e87b405	0.26504532
31	0xbde9a1bf	-0.11407804
32	0xbf43b10e	-0.7644204
33	0xbe2e89a0	-0.17044687
34	0xbe8f7ee9	-0.28026512
35	0xbf33dc47	-0.7025799
36	0xbf054e8b	-0.5207297
37	0x3e309194	0.17243034
38	0xbde69f86	-0.112608954
39	0xbc9ecec7	-0.019385708
40	0x3a35673c	0.0006919985
41	0xbed41f67	-0.41430208
42	0xbdce0162	-0.100588575
43	0xbdadf75e	-0.08494447
44	0xbdc76f27	-0.097379975
45	0xbe0d9f0f	-0.13830207
46	0xbde18508	-0.11011702
47	0xbfafd982	-1.3738253
48	0xbc134dda	-0.008990729
49	0xbd5f1251	-0.054460827
50	0xbe1ef20c	-0.15522021
51	0xbeb96ae0	-0.36214352
52	0x3e93526a	0.28773814
53	0xbf0b28dd	-0.5435923
54	0xbea6a78c	-0.32549703
55	0x3d1e5ca7	0.03866258
56	0x3e109330	0.14118648
57	0xbe61d2fd	-0.22053142
58	0x3e746445	0.23866375
59	0xbf5ba7d9	-0.8580299
60	0xbd734141	-0.059388403
61	0xbd97fdd0	-0.07421458
62	0xbdfe89c3	-0.1242862
63	0x3d5445bf	0.051824328
64	0x3ea17640	0.3153553
65	0xbef515b0	-0.4786811
66	0xbec033fe	-0.37539667
67	0x3d6c0115	0.05761822
68	0xbed56b6c	-0.4168352
69	0x3dc91831	0.09819067
70	0xbcd7eed7	-0.026359005
71	0x3d99b345	0.07504896
72	0x3ea48269	0.32130745
73	0x3e031a70	0.12803054
74	0x3df437d0	0.11924708
75	0xbe69d48c	-0.22834986
76	0xbf635860	-0.88806725
77	0x3cfb8257	0.0307018
78	0xbea7e8d2	-0.32794815
79	0xbe676492	-0.22596958
80	0xbe0d9e01	-0.13829805
81	0xbe2c21b2	-0.16809729
82	0xbdabd5d4	-0.08390394
83	0xbe83e447	-0.257601
84	0xbe6ac2e0	-0.22925901
85	0xbe865263	-0.2623473
86	0xbc74a580	-0.014932036
87	0xbea135f3	-0.31486472
88	0x3f097998	0.5370116
89	0xbdf4189c	-0.11918756
90	0xbea165d8	-0.31523013
91	0xbe2ac32b	-0.16676013
92	0x3d83eb6f	0.0644139
93	0xbd88daa6	-0.06682329
94	0xbe0cd99b	-0.13754885
95	0xbf7d814d	-0.9902542
96	0x3e282e59	0.1642393
97	0x3e2cf5d6	0.16890654
98	0xbefac5a2	-0.48978907
99	0x3b203010	0.002444271
100	0xbee545f6	-0.44779938
101	0xbf9a1425	-1.2037398
102	0x3d26d91b	0.04073439
103	0x3cf489a1	0.029850783
104	0xbe528815	-0.20559724
105	0xbd0bdc02	-0.034145363
106	0xbf6f0cab	-0.93378705
107	0xbdc1ee38	-0.09469265
108	0xbed06ad2	-0.40706497
109	0x3d5dfec2	0.054198034
110	0x3f225c4f	0.634221
111	0xbd50883d	-0.050911177
112	0x3f005a0f	0.5013742
113	0xbc51a310	-0.012795225
114	0xbecf6293	-0.40504894
115	0x3d2e1a32	0.04250545
116	0xbcbf1026	-0.02332313
117	0x3e0a6f44	0.13519007
118	0xbd887619	-0.0666315
119	0xbe79a75d	-0.2438025
120	0xbea81298	-0.32826686
121	0x3e521b35	0.20518191
122	0xbed953e5	-0.4244682
123	0xbe5cd52f	-0.21565698
124	0xbe9036c3	-0.2816678
125	0x3e959959	0.29218557
126	0xbe10dfbb	-0.14147846
127	0xbc88bdd0	-0.016692072
128	0xbef8a3e5	-0.48562542
129	0xbb398ae8	-0.0028311554
130	0xbef55b5a	-0.47921258
131	0x3d914cc5	0.07094721
132	0xbd072954	-0.032998398
133	0x3e1486ef	0.14504598
134	0x3f169dae	0.5883435
135	0x3e97390b	0.29535708
136	0xbf1da1b1	-0.61574847
137	0x3e5902c8	0.21192467
138	0x3d898ea5	0.067166604
139	0xbd9e2019	-0.07720966
140	0xbd2facd1	-0.04288942
141	0x3e510c87	0.20414935
142	0xbf1aaff7	-0.6042475
143	0x3e68aa41	0.22721197
144	0x3df65b4b	0.120291315
145	0xbbd57f40	-0.0065154135
146	0x3ed73c20	0.4203806
147	0xbe625981	-0.22104456
148	0x3f398887	0.7247395
149	0xbea12147	-0.314707
150	0x3ce2db64	0.027692504
151	0xbe0bcb09	-0.1365167
152	0x3f014183	0.5049059
153	0xbead3454	-0.33828986
154	0xbe1dd2f8	-0.1541251
155	0xbf29573d	-0.6614874
156	0x3cd5c381	0.0260942
157	0x3e301d6a	0.1719872
158	0x3dc39258	0.09549397
159	0xbde16ede	-0.11007474
160	0xbead4f01	-0.33849338
161	0xbfad1cff	-1.3524474
162	0xbdcf43b3	-0.101203345
163	0xbdd33942	-0.103136554
164	0x3e64e6b5	0.22353633
165	0x3d1bd24d	0.038042355
166	0xbf77328d	-0.9656151
167	0x3e1a5c11	0.15074183
168	0x3e82ce15	0.25547853
169	0xbce85235	-0.028359512
170	0xbebc03e4	-0.36721718
171	0xbd325567	-0.043538477
172	0xbed0c1d3	-0.40772876
173	0xbf22937b	-0.6350629
174	0xbe2c4e9e	-0.16826865
175	0x3e2d32ef	0.16913961
176	0x3e416ee1	0.18889953
177	0x3ea5872a	0.32329684
178	0xbe82ffbb	-0.25585732
179	0xbc9000c5	-0.017578492
180	0x3e01c553	0.1267293
181	0xbd66f698	-0.056387514
182	0xbe390487	-0.18068133
183	0xbe904f7e	-0.28185648
184	0xbef780d7	-0.48340484
185	0xbf85ef44	-1.0463643
186	0xbe79d4db	-0.24397604
187	0x3e339a2b	0.17539279
188	0xbebcfcfc	-0.36911762
189	0xbe899d67	-0.268779
190	0xbd71b604	-0.059011474
191	0xbeaf71e3	-0.34266576
192	0x3c11c4b0	0.008896992
193	0xbde84d40	-0.11342859
194	0xbe27635c	-0.16346496
195	0xb879d000	-5.955994e-05
196	0x3d8f470a	0.069959715
197	0xbd1dc508	-0.03851798
198	0x3cf25398	0.029580876
199	0x3d6cd7bc	0.057822928
200	0x3d373edc	0.04473768
201	0x3ddec532	0.10877456
202	0x3e0efce3	0.13963656
203	0xbda18c8e	-0.07888137
204	0xbdd98492	-0.10620989
205	0xbe2d1f2a	-0.1690642
206	0x3e011879	0.12606992
207	0x3d8b3d02	0.06798746
208	0x3cf52b40	0.02992785
209	0xbdc54d4a	-0.09633882
210	0xbde043a8	-0.109504044
211	0x3d71c364	0.05902423
212	0xbe040ab8	-0.12894714
213	0xbda40c00	-0.08010101
214	0xbdb21ad2	-0.08696522
215	0x3d044718	0.032294363
216	0xbc94e390	-0.018174917
217	0x3db2fc1e	0.08739494
218	0xbcf3fa28	-0.02978237
219	0x3e274487	0.16334735
220	0x3d861438	0.06546825
221	0xbcb56e00	-0.022147179
222	0x3e09052f	0.13380884
223	0x3def29fe	0.11677931
224	0x3d9be9b2	0.07612933
225	0x3e03f33d	0.12885757
226	0xbdbf9ab4	-0.09355679
227	0x3c1389b0	0.009004995
228	0x3d5da9e0	0.054117084
229	0xbd717bac	-0.058955833
230	0xbdfedd02	-0.12444498
231	0x3dbf065a	0.09327383
232	0x3e2137cf	0.15743946
233	0x3e178f51	0.14800765
234	0xbde51fc1	-0.11187697
235	0x3e1829ad	0.14859648
236	0xbdd0389d	-0.10167048
237	0xbdb88467	-0.09009629
238	0x3d251354	0.040301636
239	0xbe324ca4	-0.17412049
240	0xbd1afee0	-0.037840724
241	0xbe18af10	-0.14910531
242	0x3e1aaa01	0.15103914
243	0x3cd5d230	0.026101202
244	0xbe179588	-0.14803135
245	0x3bf77c60	0.0075526685
246	0x3d783728	0.060599476
247	0xbe01310d	-0.12616368
248	0xbc98c380	-0.01864791
249	0xbd49387c	-0.049126133
250	0x3d00f33c	0.031481966
251	0xbc3a52a0	-0.011372238
252	0xbdb0aefe	-0.08627127
253	0xbe023782	-0.12716487
254	0xbdc01035	-0.09378091
255	0x3e2413e7	0.16023217

lstm.weight_hh_l0 f4 [128, 32]
0	0x3d4d28a4	0.050087586
1	0x3dc65256	0.09683673
2	0x3e153651	0.14571501
3	0x3e16217d	0.14661212
4	0x3d28dcbc	0.041226134
5	0xbd9ea826	-0.077469155
6	0x3e2adef1	0.16686608
7	0x3d08647c	0.033298954
8	0xbb24a740	-0.0025124103
9	0xbde9eb29	-0.11421806
10	0x3e1ee1fd	0.15515895
11	0x3db5ee5a	0.088833526
12	0x3e07184b	0.13192861
13	0xbcc70c88	-0.024297968
14	0x3deee072	0.11663903
15	0xbd6317aa	-0.05544249
16	0x3e112703	0.14175038
17	0xbe176e43	-0.14788155
18	0xbdaabd76	-0.08336918
19	0x3dae6ffa	0.085174516
20	0xbddd8aba	-0.108174756
21	0xbda179f3	-0.07884588
22	0xbc9bb240	-0.019005895
23	0xbe2e891b	-0.17044489
24	0x3e1aa193	0.15100698
25	0xbdf3df0e	-0.11907779
26	0x3bddb9a0	0.006766513
27	0x3e143227	0.14472257
28	0xbd8954ee	-0.06705652
29	0xbdcbba02	-0.099475875
30	0xbe2658e6	-0.1624485
31	0x3e0b1573	0.13582401
32	0x3dbd108e	0.09231673
33	0xbd72b7f2	-0.059257455
34	0xbcbf4940	-0.023350358
35	0x3df8efe2	0.12155129
36	0x3d784260	0.060610175
37	0xbdf97fa1	-0.121825464
38	0x3a967500	0.001147896
39	0xbc695460	-0.014241308
40	0xbd30ff94	-0.04321249
41	0xbe1c3e97	-0.15258251
42	0x3e14f2e7	0.14545785
43	0xbd6b272e	-0.05741041
44	0xbcc894e8	-0.024485067
45	0x3df3e0b2	0.119080916
46	0xbe0954b6	-0.13411221
47	0xbe1a445b	-0.15065138
48	0xbde9b9ac	-0.11412367
49	0xbe009d76	-0.12560067
50	0xbce69210	-0.02814582
51	0xbd2d5250	-0.042314827
52	0xbdd38dcb	-0.10329779
53	0xbddc87dc	-0.107681006
54	0xbd0089e8	-0.031381518
55	0xbd70cfa6	-0.05879178
56	0x3dcb0e5a	0.09914847
57	0x3dec5c36	0.11541025
58	0x3df7a20a	0.120914534
59	0x39943800	0.00028270483
60	0xbd3c5104	-0.0459757
61	0x3db49ad2	0.08818592
62	0x3dae7906	0.08519177
63	0xbdea1a6d	-0.114308216
64	0xbd01a124	-0.031647816
65	0x3d6b7634	0.057485774
66	0x3d869184	0.06570724
67	0xbd9d33b0	-0.07675874
68	0xbab22d80	-0.0013593882
69	0xbe2bff02	-0.16796497
70	0x3d184b8c	0.037181422
71	0x3c954438	0.018221006
72	0x3dc119d6	0.09428756
73	0x3cfcf770	0.030879706
74	0x3a2f0100	0.0006675869
75	0x3de2c9a2	0.11073615
76	0xbc2bdfb0	-0.010490343
77	0x3d819796	0.06327741
78	0xbd86824a	-0.065678194
79	0x3e09a425	0.13441522
80	0xbe14f03f	-0.14544772
81	0x3d34c928	0.04413715
82	0x3dda062a	0.10645707
83	0x3e1674df	0.1469302
84	0xbe32446c	-0.17408913
85	0x3d5bb640	0.053640604
86	0xbcd3f260	-0.02587241
87	0x3d3aed58	0.045636505
88	0x3d23a294	0.03994997
89	0x3d96c492	0.073617116
90	0xbd34b2a4	-0.044115677
91	0x3e2eec45	0.17082317
92	0x3d5c0dcc	0.053724095
93	0x3d79077c	0.060798153
94	0xbe2e53e9	-0.17024197
95	0xbd66f0ee	-0.056382112
96	0xbda2417f	-0.07922649
97	0xbd65d21c	-0.05610858
98	0xbe2b7812	-0.16745022
99	0x3d8a657c	0.06757638
100	0xbdd5274c	-0.10407886
101	0xbe0a2777	-0.13491617
102	0x3be43740	0.006964594
103	0x3d52a4ac	0.051426575
104	0x3d008cd0	0.03138429
105	0xbc0e9880	-0.008703351
106	0x3dedc572	0.11609925
107	0x3df40686	0.11915307
108	0x3cde82d0	0.027161986
109	0xbe2bc949	-0.16776003
110	0x3e30240b	0.1720125
111	0x3d3b98f4	0.045800164
112	0x3e2a3c49	0.1662456
113	0xbe1687ae	-0.14700195
114	0x3dce4852	0.10072388
115	0x3df1baf6	0.11803238
116	0x3dd8978e	0.10575782
117	0x3de1fafe	0.11034201
118	0xbde0a800	-0.109695435
119	0xbcc897d0	-0.024486452
120	0xbbb22200	-0.005436182
121	0x3e2a72ff	0.1664543
122	0xbe153a02	-0.1457291
123	0x3dcc5b56	0.099783584
124	0xbcad92c8	-0.021188155
125	0x3e01c273	0.12671833
126	0xbdb52e04	-0.088466674
127	0x3d42f9c8	0.04760149
128	0xbdb429bc	-0.08797023
129	0x3daeb78e	0.08531104
130	0x3e211fdf	0.15734814
131	0x3e258391	0.1616347
132	0xbd18f000	-0.037338257
133	0x3e0e51bf	0.13898371
134	0xbd2d7150	-0.04234439
135	0x3db362d6	0.08759086
136	0xbca2ad28	-0.019857958
137	0x3d2086d4	0.039191082
138	0xbd537058	-0.05162081
139	0x3d7f1944	0.062279955
140	0x3dcf9eca	0.101377085
141	0xbca39b40	-0.01997149
142	0x3de0630a	0.1095639
143	0x3d968bae	0.073508605
144	0x3e3377c1	0.17526151
145	0x3de12e0a	0.109951094
146	0xbcf87520	-0.030329287
147	0x3de51d3e	0.11187218
148	0x3ddb9256	0.10721271
149	0x3b615800	0.0034384727
150	0x3cf6b7c0	0.030116916
151	0x3dc79c4a	0.09746607
152	0xbe0dbdcf	-0.13841937
153	0xbdbc5ccb	-0.09197386
154	0xbd766b24	-0.06016077
155	0xbe2ac379	-0.1667613
156	0xbe076e87	-0.13225757
157	0x3c9c1598	0.019053265
158	0x3d67f818	0.056633085
159	0x3d4a93c4	0.049457327
160	0x3e105ecd	0.14098664
161	0xbe1237fc	-0.14279169
162	0x3e029cdf	0.12755154
163	0x3e190cd1	0.14946295
164	0xbe2bcd06	-0.16777429
165	0x3e269bb7	0.16270338
166	0x3e145cbb	0.14488499
167	0xbda3815f	-0.0798366
168	0xbdf7d385	-0.12100891
169	0xbd1d6118	-0.038422674
170	0xbe18a069	-0.14904942
171	0xbd8e9433	-0.069618605
172	0xbe286ba0	-0.16447306
173	0xbaa1c300	-0.001234144
174	0x3e043a9d	0.12912984
175	0x3dcf5326	0.10123281
176	0xbdc5896a	-0.0964535
177	0xbe2569e8	-0.16153681
178	0x3e2a3d41	0.16624929
179	0xbd2863a8	-0.041110665
180	0x3e0bf9e1	0.1366954
181	0xbdd4465c	-0.103649825
182	0xbaaf4b00	-0.0013373792
183	0xbe2e0037	-0.1699227
184	0xbdf0951f	-0.117471926
185	0x3e29c1c5	0.16577823
186	0x3d88927a	0.06668563
187	0xbd6f9386	-0.0584903
188	0xbe1e291c	-0.1544537
189	0x3d9d4d92	0.07680811
190	0x3ced4178	0.028961882
191	0x3e316803	0.17324834
192	0xbdeed2ac	-0.11661276
193	0xbe1733cc	-0.14765853
194	0x3dd1db6e	0.10246931
195	0x3d4bc15c	0.04974495
196	0xbe296bef	-0.1654508
197	0x3dcff572	0.10154237
198	0x3d811752	0.06303276
199	0xbe2049df	-0.1565318
200	0xbdd19184	-0.10232833
201	0x3d879b3a	0.06621404
202	0x3d459b08	0.048243552
203	0x3dcebace	0.10094224
204	0xbcce7fc0	-0.0252074
205	0xbe143abe	-0.14475533
206	0xbe34771c	-0.17623562
207	0x3e138c75	0.14409049
208	0x3d0e2e70	0.034712255
209	0xbd95d27d	-0.07315538
210	0xbd96ca8a	-0.0736285
211	0x3d6ddf10	0.058074057
212	0x3e148c3d	0.14506622
213	0x3e0940d7	0.1340364
214	0x3e27cc73	0.16386585
215	0x3d8873bc	0.066626996
216	0x3d3cfb34	0.046138003
217	0x3e2b6115	0.16736253
218	0x3dc3bd4e	0.095575914
219	0x3d6c7638	0.05772993
220	0x3ddfe056	0.109314606
221	0x3e0b3f93	0.1359847
222	0xbcb97720	-0.022639811
223	0xbde5155f	-0.11185717
224	0x3a755100	0.0009358078
225	0xbdb00286	-0.08594231
226	0xbdf70ebe	-0.12063359
227	0xbd5e8e72	-0.054335065
228	0x3db0f88a	0.08641155
229	0x3dcd9f4a	0.100401476
230	0xbe07601e	-0.1322026
231	0x3e269467	0.16267549
232	0xbcda74b8	-0.026666984
233	0xbdaeeb3a	-0.0854096
234	0x3dea501e	0.114410624
235	0x3c65c060	0.014022917
236	0x3e071389	0.13191046
237	0xbde6b668	-0.1126526
238	0xbca24848	-0.019809857
239	0x3dc2904a	0.09500177
240	0xbdf3bf42	-0.11901714
241	0xbbbd0520	-0.005768433
242	0x3d71d6a4	0.059042588
243	0xbe1d976e	-0.15389797
244	0xbdac7732	-0.08421172
245	0xbdf092e4	-0.11746767
246	0x3c9f18e0	0.019421041
247	0x3cceb738	0.02523385
248	0xbd2d1b7c	-0.04226254
249	0x3e22460f	0.15847038
250	0x3dff112a	0.12454446
251	0x3c85ee18	0.016348884
252	0x3c6a78d0	0.0143110305
253	0x3d9ef192	0.0776092
254	0xbdcf9c00	-0.101371765
255	0x3d9bbd5e	0.07604478

lstm.bias_ih_l0 f4 [128]
0	0x3e1ffbbd	0.15623374
1	0xbeb4a346	-0.35280818
2	0xbe75d2c1	-0.24006177
3	0x3cea2368	0.028581336
4	0x3d91a02a	0.07110627
5	0xbd04221f	-0.032259103
6	0x3d9d2e50	0.07674849
7	0xbe81fdf0	-0.2538905
8	0x3e6a2f40	0.22869587
9	0x3e45bc20	0.19310045
10	0x3b2af6ae	0.0026086974
11	0x3e37121c	0.17878002
12	0xbdabb9b3	-0.08385029
13	0x3c4de545	0.012566869
14	0x3e4e6716	0.20156512
15	0xbe30a2e4	-0.17249638
16	0xbedb6a26	-0.42854422
17	0x3d46ea69	0.048563395
18	0x3c9568e2	0.018238489
19	0xbce6afd0	-0.028160006
20	0x3dc65e4e	0.09685956
21	0x3d2dd097	0.042435255
22	0x3d6b90bb	0.057511073
23	0x3e086793	0.1332076
24	0x3df47827	0.1193698
25	0xbe36ee17	-0.17864262
26	0xbec2c25e	-0.38038915
27	0x3e67f4eb	0.22652023
28	0xbcdb6e09	-0.026785867
29	0xbe5e81ac	-0.21729153
30	0xbdb31e9b	-0.08746072
31	0x3defc59e	0.11707614
32	0xbddbd1fd	-0.107334115
33	0xbe08abae	-0.1334674
34	0x3e22a83d	0.1588449
35	0x3c28fd10	0.010314241
36	0xbd89db75	-0.06731311
37	0x3e28c8a1	0.16482784
38	0x3d239dbc	0.03994535
39	0x3cac0420	0.02099806
40	0xbcb6c0c0	-0.022308707
41	0x3cbcfd68	0.023070052
42	0xbe31e081	-0.17370798
43	0x3da71482	0.081582084
44	0xbdb37f3c	-0.087645024
45	0xbe2b1ea5	-0.16710909
46	0x3db567aa	0.08857663
47	0x3e1be5d7	0.15224396
48	0x3dbc989a	0.09208794
49	0x3d84a544	0.064768344
50	0xbd98895a	-0.07448073
51	0xbc383290	-0.011242524
52	0xbc75cd00	-0.015002489
53	0x3d7e7418	0.062122434
54	0x3dfa3986	0.12218003
55	0x3d839b00	0.06426048
56	0xbdc3429d	-0.0953419
57	0x3c5782e0	0.013153762
58	0xbe203ab5	-0.15647395
59	0xbdb64e38	-0.08901638
60	0x3da74dd2	0.0816914
61	0xbdcd9285	-0.10037712
62	0x3de87e6a	0.113522366
63	0xbcd5a358	-0.026078865
64	0x3d8af542	0.067850605
65	0xbde89e2b	-0.11358293
66	0xbeac109c	-0.33606422
67	0xbe0f2ee0	-0.13982725
68	0x3d883111	0.06649984
69	0xbd8446a9	-0.0645879
70	0x3e51f94b	0.20505254
71	0xbe559e61	-0.20861198
72	0x3e17c6f0	0.14821982
73	0xbd8dc6a1	-0.06922651
74	0x3e83b90a	0.2572711
75	0xbdd5d30e	-0.10440646
76	0xbdaf97d5	-0.085738815
77	0xbe8e2f70	-0.27770567
78	0x3dcdbb39	0.100454755
79	0xbe04b8da	-0.1296114
80	0xbdf1eed5	-0.11813132
81	0x3b9c59b9	0.004771438
82	0xbdf32422	-0.11872126
83	0x3e543adc	0.20725578
84	0x3d55fd41	0.052243475
85	0xbe4003cc	-0.18751448
86	0xbe5b4ca3	-0.21415953
87	0xbd5865da	-0.05283151
88	0x3e420fde	0.18951365
89	0xbe135e64	-0.14391476
90	0x3c3d79f1	0.011564718
91	0x3d8a65ae	0.06757675
92	0x3deee0f7	0.116640024
93	0x3e54bd8a	0.20775428
94	0x3e51d095	0.20489724
95	0xbe1adb64	-0.15122753
96	0xbdc8d5ca	-0.09806402
97	0xbee64255	-0.44972482
98	0xbdf666e4	-0.120313436
99	0xbe4625d0	-0.19350362
100	0xbc6f8e8d	-0.014621389
101	0x3e187dec	0.14891785
102	0x3b005889	0.001958402
103	0xbe69d571	-0.22835328
104	0xbd3584d1	-0.044316117
105	0x3d547cf1	0.051876966
106	0x3dced75e	0.10099672
107	0x3e3a7813	0.18209867
108	0x3e86a3d8	0.26296878
109	0x3e02b554	0.12764484
110	0xbd036e60	-0.032087684
111	0xbe2e0570	-0.16994262
112	0xbd38ffda	-0.045165874
113	0x3dd2664b	0.10273417
114	0x3d2e66a0	0.04257834
115	0x3d3f3e3e	0.04669022
116	0xbda3d3c5	-0.07999376
117	0xbdda266c	-0.1065186
118	0xbe53eb1f	-0.2069516
119	0x3e477f82	0.19482234
120	0xbd8a1b51	-0.067434914
121	0x3d31bf95	0.043395597
122	0xbdc01847	-0.093796305
123	0x3c943505	0.018091688
124	0xbe83e157	-0.25757858
125	0x3d94b4a2	0.072610155
126	0xbdf4d4ac	-0.119546264
127	0xbd9ad2c3	-0.07559731

lstm.bias_hh_l0 f4 [128]
0	0xbe1f34c2	-0.1554747
1	0xbeac2ddc	-0.33628738
2	0xbe80dab2	-0.2516685
3	0xbd0d4c21	-0.03449643
4	0x3e612f98	0.21990812
5	0x3e3dc2e8	0.18531382
6	0xbd836b82	-0.0641699
7	0xbe8c76f1	-0.27434495
8	0x3d55348c	0.052052066
9	0x3e5c4aec	0.21512955
10	0xbe3a74c6	-0.18208608
11	0xbd41fe21	-0.047361497
12	0xbd500369	-0.050784502
13	0x3ddef192	0.1088592
14	0xbd73e617	-0.059545603
15	0xbe0d1690	-0.13778138
16	0xbe18ab55	-0.14909108
17	0x3b7316fd	0.003709256
18	0x3e5a2c4d	0.21305962
19	0x3d98600d	0.07440195
20	0x3ca27bf2	0.019834492
21	0x3b7527a5	0.0037407663
22	0xbe0bcbc2	-0.13651946
23	0x3d970fb9	0.07376046
24	0x3d6ee1f6	0.058320962
25	0x3cb66adb	0.02226775
26	0xbe8cc934	-0.27497256
27	0x3e32962d	0.174401
28	0xbe251690	-0.16121888
29	0xbd3417f1	-0.043968145
30	0xbd887f69	-0.066649266
31	0x3e8ba80b	0.27276644
32	0xbdf23363	-0.118262075
33	0x3d928d22	0.07155825
34	0x3dac0dc6	0.084010646
35	0x3deba766	0.11506538
36	0xbe046210	-0.12928033
37	0xbd1e8140	-0.03869748
38	0x3e0e4ddd	0.1389689
39	0x3e287f1b	0.16454737
40	0xbd65ccb8	-0.05610344
41	0x3d36ebcc	0.044658467
42	0x3db48232	0.08813895
43	0xbd7567ea	-0.059913553
44	0xbe1579a1	-0.14597179
45	0x3e0c2603	0.13686375
46	0x3d8ce8bc	0.06880328
47	0xbe25eb23	-0.16202979
48	0x3d1cc6a0	0.03827536
49	0x3d3bfbe4	0.04589452
50	0x3e2c653d	0.16835494
51	0x3abfbc80	0.0014628321
52	0x3dae47f6	0.08509819
53	0x3e24616b	0.16052787
54	0x3d8365bc	0.06415889
55	0xbd9d5566	-0.07682304
56	0x3c62fb90	0.0138539225
57	0x3e1a9ed7	0.15099655
58	0x3dd7886a	0.10524066
59	0x3dca4ebe	0.098783
60	0x3d3f5adc	0.04671751
61	0xbd331948	-0.043725282
62	0xbd39232c	-0.04519956
63	0x3c5b63c0	0.0133904815
64	0x3d178edb	0.037001472
65	0xbdfb88d7	-0.122819595
66	0xbc95f5cc	-0.018305682
67	0x3ca21fd6	0.019790571
68	0xbe3d984f	-0.18515132
69	0xbbaf3739	-0.005347159
70	0x3e708ac2	0.23490432
71	0xbdcc6b6a	-0.09981425
72	0x3de1e5a8	0.110301316
73	0x3e4fa5e4	0.20278126
74	0x3e6d8f79	0.23199262
75	0xbe6f6319	-0.23377647
76	0xbd8182ee	-0.06323801
77	0xbd072559	-0.032994602
78	0x3e3dc79a	0.18533173
79	0xbdc3ddce	-0.0956379
80	0xbe1cb81b	-0.15304606
81	0xbd2d0ce6	-0.04224863
82	0x3c6e6291	0.014549867
83	0x3e695f33	0.22790222
84	0xbd008bcd	-0.031383324
85	0x3d8fa387	0.07013612
86	0xbdcd8b0e	-0.10036288
87	0xbe101fa2	-0.14074567
88	0xbde50f9b	-0.11184617
89	0xbc7dd2a8	-0.015492119
90	0xbe52dc53	-0.2059186
91	0x3cb4c80e	0.02206805
92	0xbdd7457d	-0.10511301
93	0x3e318666	0.17336425
94	0x3d49b0f8	0.049241036
95	0xbe3b68e8	-0.18301737
96	0xbdb7a128	-0.08966285
97	0xbea47e2f	-0.3212752
98	0xbe590bd4	-0.21195918
99	0xbc14642f	-0.009057089
100	0xbc270851	-0.010194854
101	0xbcba1264	-0.022713847
102	0x3e0589dd	0.13040872
103	0xbe94b407	-0.290436
104	0x3b591294	0.0033122646
105	0x3de36e75	0.111050524
106	0x3d81ca07	0.06337362
107	0x3d87b9e2	0.06627251
108	0x3a89eed6	0.0010523449
109	0xbd038702	-0.032111175
110	0xbb4fb1be	-0.0031691636
111	0xbe5c8eae	-0.21538803
112	0xbe16207a	-0.14660826
113	0x3d87980f	0.066208
114	0x3d49fa12	0.04931075
115	0x3e328ed4	0.17437297
116	0x3e81c023	0.253419
117	0xbdb6a72a	-0.08918603
118	0xbe1b5931	-0.15170743
119	0xbb92a4a9	-0.0044751954
120	0xbdca0c53	-0.09865632
121	0xbe30d173	-0.17267399
122	0xbe18843c	-0.14894193
123	0x3e0c3e9d	0.1369576
124	0xbe536ca3	-0.2064691
125	0xbe4b9e7c	-0.19884676
126	0x3d43da72	0.047815748
127	0x3e70d199	0.23517455

fc1.weight f4 [16, 32]
0	0x3dc7d408	0.097572386
1	0x3d5702b5	0.052492816
2	0x3e8ff956	0.28119916
3	0x3da71107	0.081575446
4	0x3e5dcc69	0.21660008
5	0xbe6090da	-0.21930256
6	0xbf27240a	-0.65289366
7	0x3c9d26a0	0.019183457
8	0x3de4403b	0.111450635
9	0xbdddca7a	-0.10829635
10	0xbe9bf799	-0.3046234
11	0x3e7f33b5	0.24922068
12	0x3eabbe76	0.33543748
13	0x3e477618	0.19478643
14	0xbe3dc95c	-0.18533844
15	0xbd9d5459	-0.07682104
16	0x3e3cbf74	0.18432409
17	0x3dd9243e	0.10602616
18	0x3ecda3b1	0.4016395
19	0xbedc15c9	-0.4298537
20	0x3ea461a4	0.32105744
21	0x3dac03f3	0.08399191
22	0xbddd5e67	-0.108090214
23	0x3e8e4d7b	0.27793488
24	0xbd97bdbf	-0.07409238
25	0xbdaec992	-0.0853454
26	0x3e7863b5	0.24256785
27	0xbd08ed64	-0.03342952
28	0x3d6b305e	0.057419173
29	0xbec28d4a	-0.3799842
30	0xbe67c3ab	-0.22633235
31	0x3eff76f1	0.49895433
32	0x3e01d429	0.12678589
33	0x3dfd940e	0.12381755
34	0xbde39578	-0.11112493
35	0x3d57953e	0.052632563
36	0xbda2127b	-0.07913681
37	0xbeea0122	-0.4570399
38	0xbe64d9da	-0.22348729
39	0x3deb14d9	0.11478586
40	0xbeb6bf7f	-0.35692975
41	0xbe697e74	-0.22802144
42	0x3ad703d8	0.0016404344
43	0x3e46088a	0.19339195
44	0x3f01df40	0.5073128
45	0x3e70154d	0.23445626
46	0xbe44ec5b	-0.19230787
47	0x3ec8a591	0.39188817
48	0x3c84eb57	0.0162255
49	0xbbc831fd	-0.0061094747
50	0x3ea3a1d6	0.3195941
51	0xbdb41f65	-0.087950505
52	0x3ee15828	0.4401257
53	0x3e31960f	0.17342399
54	0xbdd240f1	-0.10266293
55	0x3e0d7412	0.13813809
56	0x3c3ed5bd	0.011647639
57	0x3f01bfc3	0.5068323
58	0x3dc4d60d	0.096111394
59	0xbeb68499	-0.3564804
60	0x3dfe9476	0.124306604
61	0xbd643621	-0.055715684
62	0xbde254e5	-0.110513486
63	0x3f121038	0.57056
64	0xbe49c2c3	-0.19703202
65	0xbd461bf6	-0.04836651
66	0x3f3580ad	0.7089947
67	0xbe4ccb4a	-0.19999424
68	0xbe8b4756	-0.27202863
69	0x3e9ea2b3	0.30983505
70	0x3e3972c4	0.18110186
71	0x3f253870	0.6453924
72	0x3e7611a4	0.24030167
73	0x3e63589e	0.22201774
74	0xbb17585c	-0.0023093438
75	0xbe8fb567	-0.28068087
76	0xbe4038bf	-0.18771647
77	0xbe694a59	-0.22782268
78	0x3e1570bc	0.14593786
79	0xbec9cb15	-0.39412752
80	0x3f162e52	0.5866443
81	0xbed1df0d	-0.40990487
82	0xbeaca2d2	-0.33717972
83	0x3e2dc708	0.16970456
84	0xbe1d925d	-0.15387864
85	0xbd489a00	-0.04897499
86	0x3e5ce918	0.21573293
87	0xbe7a9641	-0.2447138
88	0x3ea653ee	0.32485908
89	0xbe7ccf3b	-0.24688427
90	0x3f2e746d	0.681464
91	0x3e936b4e	0.28792804
92	0xbea22db6	-0.316755
93	0x3e51a86e	0.20474407
94	0xbf1a1df1	-0.60201937
95	0xbe5bc9da	-0.21463719
96	0x3de17571	0.11008728
97	0xbca8c273	-0.020600533
98	0xbe162b8b	-0.14665048
99	0x3d09deb9	0.03365967
100	0x3d28009f	0.041016217
101	0x3cd65d62	0.026167575
102	0xbd0b9673	-0.034079026
103	0x3d45fdc3	0.04833771
104	0xbd5f6a3a	-0.054544665
105	0xbdbc65b1	-0.091990836
106	0xbd1956ff	-0.03743648
107	0xbdb24fc2	-0.08706619
108	0xbd2acb85	-0.041697998
109	0x3a9c5742	0.001192786
110	0xbde8a37e	-0.11359309
111	0xbcc65a1b	-0.024212888
112	0xbe13a247	-0.14417373
113	0xbd986c0b	-0.074424826
114	0x3e11b5e1	0.14229538
115	0x3d51094c	0.051034257
116	0x3d229482	0.03969241
117	0x3d570ff3	0.052505445
118	0xbd960bd9	-0.073264785
119	0xbc6c798b	-0.014433275
120	0x3dce2f0b	0.100675665
121	0x3e502f91	0.20330645
122	0xbdab6517	-0.08368891
123	0xbd1afb56	-0.03783735
124	0xbd94627a	-0.072453454
125	0x3d562a95	0.052286703
126	0xbd248578	-0.04016635
127	0x3e01573b	0.12630932
128	0xbeb437f5	-0.35198942
129	0xbcb229e0	-0.021748483
130	0x3f3a892c	0.7286556
131	0xbed5dee3	-0.41771612
132	0xbea1abec	-0.31576478
133	0x3e5f133b	0.2178468
134	0x3e221d08	0.15831387
135	0x3f26e4ff	0.6519317
136	0x3e67b07a	0.22625914
137	0x3eee10de	0.46497244
138	0x3e482137	0.1954392
139	0x3c9fbf4b	0.019500395
140	0xbe734cb3	-0.23759727
141	0xbe888044	-0.2666036
142	0x3dc78462	0.09742047
143	0xbf16833a	-0.58793986
144	0x3f07003e	0.52734745
145	0xbef4d5f4	-0.47819483
146	0xbec51e0c	-0.38499486
147	0x3e133d5f	0.1437888
148	0xbea8c47f	-0.32962415
149	0xbd887c58	-0.06664342
150	0x3e424ab8	0.18973815
151	0xbe1eb721	-0.15499546
152	0x3e21872c	0.1577422
153	0xbe83b777	-0.2572591
154	0x3f1b94d6	0.6077398
155	0x3eb57c3f	0.35446355
156	0xbe804a76	-0.2505681
157	0x3d5f4deb	0.054517668
158	0xbed53a99	-0.4164627
159	0xbe88d779	-0.26726893
160	0x3e7dd610	0.2478869
161	0x3e3a6a1e	0.18204543
162	0x3e315f6f	0.17321561
163	0xbd817f87	-0.06323152
164	0x3ed2a804	0.4114381
165	0x3dff2caa	0.12459691
166	0xbf05e654	-0.5230458
167	0x3e143b05	0.14475639
168	0xbea0785e	-0.31341833
169	0xbdada926	-0.08479528
170	0xbe85a9b0	-0.26106024
171	0x3eba55dc	0.3639363
172	0x3e8ea3bb	0.2785929
173	0x3e4cb0fb	0.19989388
174	0xbe9391a3	-0.2882205
175	0x3db50dfe	0.088405594
176	0x3e984944	0.29743397
177	0x3ec2185e	0.37909216
178	0xbcb02c28	-0.02150543
179	0xbd34c384	-0.04413177
180	0x3ebca7a5	0.36846653
181	0x3e02437c	0.12721056
182	0xbeb6d38b	-0.3570827
183	0x3ed5f4a9	0.41788223
184	0xbdf5054c	-0.11963901
185	0x3e1bc481	0.15211679
186	0x3e3b5c34	0.18296891
187	0xbbb7931e	-0.0056022545
188	0x3e83674c	0.25664747
189	0xbdc12189	-0.094302244
190	0xbeed5f15	-0.46361604
191	0x3e727fb1	0.23681523
192	0xbd6195e3	-0.055074584
193	0x3d28af35	0.041182715
194	0x3ca047a3	0.019565409
195	0x3daca3d5	0.08429686
196	0x3e037818	0.12838781
197	0x3df043f2	0.117317095
198	0xbd0d48bf	-0.034493204
199	0x3db1db64	0.086844236
200	0x3da0aae3	0.07845094
201	0xbd8c29fe	-0.06843947
202	0xbc95ab95	-0.018270293
203	0x3d9af24b	0.07565745
204	0xbdc82f2d	-0.09774623
205	0xbd61f7c3	-0.055167925
206	0xbcf81cd2	-0.03028718
207	0x3dd5777b	0.1042318
208	0x3d3b7bdc	0.04577242
209	0x3e29df13	0.16589002
210	0xbdeea647	-0.11652809
211	0xbd52825e	-0.05139386
212	0x3d6f7696	0.0584627
213	0x3d4d306a	0.050095
214	0xbe055515	-0.13020737
215	0xbb866eec	-0.0041025784
216	0xbda060b3	-0.07830944
217	0x3e2ed80c	0.17074603
218	0x3d4d642c	0.05014436
219	0xbe3f90a7	-0.18707524
220	0xbdfa6486	-0.122262046
221	0xbd7da20c	-0.061922118
222	0x3ca54096	0.020172399
223	0xbe099de4	-0.13439137
224	0x3d3e0e2f	0.046400245
225	0xbcfc71d0	-0.030815989
226	0x3ecb4c65	0.39706722
227	0xbd9dc18f	-0.07702934
228	0x3ea8843d	0.3291339
229	0x3cb67cb1	0.022276254
230	0xbef78f2f	-0.48351428
231	0x3dc06795	0.09394757
232	0xbe27835e	-0.16358706
233	0x3df0990a	0.1174794
234	0xbea5fa3e	-0.32417482
235	0x3e840011	0.257813
236	0x3df00eb5	0.11721555
237	0x3ec46cab	0.38364157
238	0xbe96864d	-0.29399338
239	0x3db03a49	0.08604867
240	0x3d91b50e	0.071146116
241	0xbc85da9b	-0.01633959
242	0x3e957361	0.2918959
243	0xbe8fbfa3	-0.28075895
244	0x3e8d2d94	0.27573836
245	0xbd8b9c52	-0.06816925
246	0xbddd4a70	-0.108052135
247	0x3e962962	0.29328448
248	0xbe303116	-0.17206225
249	0x3e42e020	0.1903081
250	0x3ea6e59b	0.3259705
251	0xbe1128da	-0.1417574
252	0x3c816b6e	0.015798297
253	0xbea6fae7	-0.32613298
254	0xbe9bfab8	-0.3046472
255	0x3ecf510a	0.40491515

fc1.bias f4 [16]
0	0x3dc7f868	0.097641766
1	0x3e227137	0.158635
2	0x3cdc806d	0.026916707
3	0xbdf6e4e2	-0.12055375
4	0xbca23096	-0.019798558
5	0x3c800108	0.015625492
6	0xbe57a4db	-0.21058981
7	0x3d4ee9bb	0.05051587
8	0x3dce93cb	0.10086783
9	0x3df56bd3	0.119834565
10	0x3d14ea85	0.036356468
11	0xbe1a97f5	-0.1509703
12	0x3dca5987	0.09880357
13	0x3b9d0abf	0.004792541
14	0xbe3120c8	-0.17297661
15	0x3e02f6ce	0.12789461

fc2.weight f4 [1, 16]
0	0x3e97a607	0.29618856
1	0x3e812aef	0.25228068
2	0xbec46678	-0.38359427
3	0x3e0efc3b	0.13963406
4	0xbeb6cf37	-0.35704967
5	0x3ea8bca5	0.32956424
6	0x3dbd32f3	0.092382334
7	0x3e7f7269	0.24945988
8	0x3e87d217	0.26527473
9	0x3ebdbc04	0.37057507
10	0xbecefbd4	-0.40426505
11	0xba0637bf	-0.0005120001
12	0x3eb94c36	0.36190957
13	0xbecd56ee	-0.40105385
14	0x3d0205d0	0.031743824
15	0x3ea8c4a4	0.32962525
